data.pth (torch, 18687 bytes, 6 tensors)

l1.weight f4 [8, 297]
000000 bb c6 a7 be 43 cf fb 3f f7 89 2b 3f 6e 6d af 3f
       -0.32768807 1.9672626 0.6700739 1.370527
000010 62 1a 31 40 82 b3 c2 bf c2 6c 55 be 61 72 b5 3e
       2.7672353 -1.5211031 -0.20842269 0.35438827
000020 19 47 a5 3e 84 c1 c4 3e 8a ab 83 bd 7c 18 b6 be
       0.32280806 0.3842889 -0.06429203 -0.35565555
000030 c6 dd 1a bf e0 ee 32 3f 59 58 c3 3d c3 21 b5 3e
       -0.6049465 0.69895744 0.09538335 0.3537732
000040 ab a5 0d bf 28 5e 2c 3e 59 e4 6c 3d 7f c3 be 3d
       -0.55330914 0.16832793 0.057834957 0.09314632
000050 ab c1 24 bf b7 c9 53 bf d6 c7 1e be 24 b1 69 3f
       -0.64358014 -0.8272967 -0.15505919 0.9128592
000060 f3 15 10 bf fc 24 01 bf cf 42 db 3e 52 ca 13 be
       -0.5628349 -0.5044706 0.42824408 -0.14432648
000070 ec 8c 6e 3d 58 44 9d 3e 15 78 c9 be b2 7b a9 be
       0.058239862 0.30716205 -0.39349428 -0.33102185
000080 5c a5 c9 bd 1f fd 8f bf ce f4 b9 3e 48 25 72 3f
       -0.09845993 -1.1249121 0.36319584 0.94588137
000090 a1 fc e9 be 3c 6c 5e bf 56 c3 be 3f 26 81 8e 3e
       -0.45700553 -0.868839 1.4903362 0.27832907
0000a0 83 81 4d bf da 23 87 bf a2 13 37 3f 92 94 12 40
       -0.80275744 -1.0557816 0.7151433 2.290318
0000b0 1c c7 f3 3f 06 7e 62 3f ec 8f 3b 3f 3a be de 3b
       1.9045138 0.88473547 0.7326648 0.006797579
0000c0 82 04 ef 3e 41 88 20 bf 33 ae 98 bf e7 14 1f 3f
       0.46683127 -0.62707907 -1.1928161 0.6214127
0000d0 94 3b b0 3e 35 f2 9d be bc 7c 85 3f 24 fa 2c 3f
       0.34420455 -0.30848852 1.0428691 0.67569184
0000e0 d6 17 15 bf 58 bc 17 bf 75 18 85 3f 09 33 c5 be
       -0.58239496 -0.59271765 1.0398089 -0.385155
0000f0 32 fe 0b 3e 43 f8 14 3f 2d 6d 1a 3f 9c 84 99 3e
       0.13671187 0.5819132 0.6032284 0.29983985
000100 3c 08 35 be 53 f4 98 be f9 1a 65 3f 9c 2a eb be
       -0.17678922 -0.29873905 0.8949428 -0.45930946
000110 53 00 84 3e 3b 1b d5 3f d0 2b a0 bd ce 5e 57 3e
       0.25781497 1.6648935 -0.078208566 0.21032259
000120 61 04 ba be 01 01 c1 3e 4a aa 2d 3f 0b 12 d0 be
       -0.36331466 0.37696078 0.67837965 -0.40638766
000130 a5 35 bc be 14 1f c4 be 73 01 6a 3e 33 0e 08 3e
       -0.36759678 -0.3830496 0.22852115 0.13286667
000140 0f fa 97 3e 3e d8 4b bf a4 eb 8f be c2 9d 94 3e
       0.29682967 -0.79626834 -0.28109467 0.2902661
000150 0a 4d 88 3e 72 ff 45 3f 75 63 14 3f 77 48 37 3f
       0.26621276 0.77342904 0.5796426 0.7159495
000160 99 24 16 3f ca e7 92 3e f4 5c 6e 3f ef b7 84 3e
       0.58649594 0.28692466 0.93110585 0.2592158
000170 7d 7d bb 3f c0 5a c2 3e 41 df c3 3e 26 2d 86 bf
       1.4647671 0.37959862 0.38256267 -1.0482528
000180 61 8b f0 3f 36 d0 eb 3f 51 f8 a8 3f aa b0 6c bf
       1.8792535 1.8422916 1.320078 -0.9245707
000190 f2 ed 84 bf ff 0c b9 bf cc 82 8d 3f b8 37 a9 be
       -1.0385115 -1.4457091 1.1055541 -0.33050323
0001a0 b4 f7 e4 be 54 b5 8b 3f 26 1c 99 3e f5 c1 83 be
       -0.44720232 1.0914712 0.29904288 -0.25733915
0001b0 b7 15 16 40 9d c0 78 3f 4b 37 4b 3f e5 59 a9 bf
       2.3450754 0.97168905 0.79381245 -1.3230559
0001c0 b8 43 49 3f ac 4b 16 3f 53 08 70 bf 1e 40 d8 3e
       0.78618956 0.58709216 -0.937627 0.42236418
0001d0 fc 61 b3 3f 52 3e fe 3e 26 4f 0d bf bf 43 8e be
       1.4014277 0.49656922 -0.55198896 -0.2778606
0001e0 3c fc 98 be dd e8 aa 3f 2a 14 ae 3f fe ac 57 3f
       -0.2987994 1.3352314 1.3599904 0.8424834
0001f0 16 87 01 3f 2e 7a 6e 3c 88 c7 03 bf fe 6f 1e be
       0.5059675 0.014555497 -0.51476336 -0.15472409
000200 15 32 ee be fb 00 e2 bd 6f 10 bf 3e 04 30 53 3f
       -0.46522585 -0.11035343 0.37317225 0.8249514
000210 89 8d 28 3e 87 49 0b bf 3e 3c 81 3f 8f 00 8c 3f
       0.16460241 -0.5440907 1.009651 1.093767
000220 f1 cb d0 be 86 85 d4 be ad 07 bd be df 0c 69 bd
       -0.40780595 -0.4150812 -0.3691992 -0.05689704
000230 45 90 2f be 0f 22 c6 bb bb 82 4f bd 8b ef e0 be
       -0.17144878 -0.0060465406 -0.050661784 -0.43932757
000240 20 26 62 be 2b 07 f0 3f 95 8b 75 3f 8a d1 a0 bf
       -0.22084856 1.8752187 0.9591611 -1.2563946
000250 f6 84 12 be 0b 32 2d bf 3e 6c 1d bf 2d 5d 75 bf
       -0.14308533 -0.67654485 -0.6149329 -0.958453
000260 31 c7 2a 3f d6 d0 94 3f eb 72 2a 3f ba af b2 3e
       0.6671019 1.1626232 0.665816 0.34899694
000270 1d 96 82 bf d6 ad 27 3f e9 76 2b 3f 13 b3 3d 3f
       -1.0202061 0.6549963 0.6697832 0.7410137
000280 5d 36 74 bf 0c 84 b0 3f ad f1 c9 be 37 30 c7 be
       -0.9539545 1.3790298 -0.39442196 -0.38903973
000290 7e de 3d 3f 07 cc 09 3f 24 b0 a0 3f 5e 2d a1 3f
       0.7416762 0.53826946 1.2553754 1.259197
0002a0 12 46 e7 3f db 22 3d 3f c9 23 f6 3e e1 97 c1 3e
       1.8068259 0.7388131 0.48074177 0.37811187
0002b0 f1 66 18 3f ea c3 6e 3e 4a f8 9b be 4e 3c 32 3f
       0.59532076 0.23316923 -0.30462867 0.6962327
0002c0 5d 7e 64 bc df 25 f3 be b9 0f 49 3f 30 45 57 3f
       -0.013946143 -0.4748983 0.78539616 0.84089947
0002d0 ff f5 da 3d 83 ae ab 3f 98 de 0b 3f 78 97 00 40
       0.10691451 1.3412632 0.54636526 2.009245
0002e0 e5 74 41 3f 4f 6d b7 3e a2 1f 09 be c8 aa 03 bf
       0.7556899 0.35825583 -0.13390973 -0.51432467
0002f0 f3 49 68 bf 9a 14 e9 3d 9e d3 85 bf ac 28 d6 3f
       -0.9073784 0.113808826 -1.0455205 1.6731162
000300 04 46 0b be fa 0a 5b 3c 55 24 93 3e b9 b0 fb 3e
       -0.13600928 0.013369316 0.28738657 0.49158266
000310 11 a4 eb be f5 d6 23 3c 72 6d 32 be 79 71 83 bd
       -0.4602361 0.00999998 -0.17424563 -0.064181276
000320 b0 37 50 3e bd b7 70 bf 7c e4 1a 3f 38 ba a3 be
       0.20333743 -0.9403036 0.6050489 -0.3197801
000330 36 05 ad bf e9 14 88 be ac 1a 98 bb 7c 3e 8d 3e
       -1.3517215 -0.26578453 -0.0046418514 0.27586734
000340 ea c4 85 bf a6 5e e2 3e e4 cc 0a 3f e2 3e 3a 3f
       -1.0450718 0.44212836 0.5421889 0.727522
000350 d9 81 56 bf 23 df 03 bd 82 8e c6 be d9 51 c9 be
       -0.8379188 -0.03219522 -0.387806 -0.39320257
000360 53 36 75 3f bf 95 0b 3f 00 ed e5 3e 55 53 8f 3f
       0.9578602 0.5452537 0.4490738 1.1197306
000370 62 4a 37 3f e1 c6 01 3e c9 d1 c9 be 9a 77 9f be
       0.71597874 0.12673523 -0.39417866 -0.31145936
000380 db b1 85 be 20 c2 fa 3f c6 d8 4d bf 24 c4 ad 3e
       -0.26112255 1.9590492 -0.80408895 0.33938706
000390 27 f6 11 bf 4f 23 7a 3f 39 74 d6 3e 34 ae cb 3d
       -0.57016224 0.97710127 0.41885546 0.09945336
0003a0 6e 2b fa be f8 07 f7 be dc 91 85 3f 32 e1 be 3e
       -0.4886126 -0.48248267 1.0435138 0.37281185
0003b0 14 3f f6 3f b9 89 72 3e 1d da 1e 3f bd 50 aa be
       1.9238 0.2368535 0.62051564 -0.33264723
0003c0 fc 81 79 3f 62 25 19 3f f3 58 02 bf 23 6e 13 bf
       0.97463965 0.59822667 -0.50916976 -0.5758993
0003d0 92 0a db 3e da d0 b6 be ae 1a 16 bf 60 73 4b 3e
       0.42781502 -0.35706216 -0.5863446 0.19868231
0003e0 93 9c c5 3d 54 9f 17 bf 1a 03 10 bf b7 fe 42 3e
       0.09649005 -0.5922749 -0.5625473 0.19042479
0003f0 da 42 3b be 59 ec f5 be 74 90 a0 3f 27 c8 47 40
       -0.1828722 -0.4803188 1.2544084 3.1215913

l1.bias f4 [8]
000000 3e 42 65 3f 3e f3 8d 3f 3c eb 32 3f 6c 9e 2e 3f
       0.895542 1.1089857 0.6989019 0.6821048
000010 6a 35 4c 3f e4 46 66 3f 7f 79 40 3f 15 24 7d 3f
       0.79769003 0.8995192 0.7518539 0.9888318

l2.weight f4 [8, 8]
000000 49 bb af 3f ae df ef 3f f7 c5 e4 be 11 90 c6 bf
       1.372903 1.8740137 -0.44682285 -1.5512716
000010 8b c2 97 3f 40 00 de bd 7b 3e 93 bf 67 26 b2 3f
       1.1856245 -0.108398914 -1.1503443 1.391797
000020 ed f4 a5 3e cd a2 f6 3f cd 03 36 3f f1 58 00 40
       0.32413426 1.9268433 0.7109955 2.0054286
000030 71 e0 be 3e 75 45 f8 3e a7 94 16 bf 95 f6 b5 bf
       0.3728061 0.48490492 -0.58820575 -1.4215876
000040 f7 2f 83 bf c8 84 fc 3f f5 8d c0 be b2 ae c4 3f
       -1.0249013 1.9728022 -0.37608305 1.5365813
000050 7f 04 b8 bf 15 11 04 bf e9 4d 99 3f 9b 25 e2 3f
       -1.4376372 -0.51588565 1.1976901 1.7667726
000060 f8 60 74 3f af 12 ab bd a1 ba 12 40 f5 76 e5 3f
       0.9546046 -0.08353173 2.292641 1.7926928
000070 d5 cb c5 be 5e 31 c8 bf fb 20 9e 3f a0 2f 78 3f
       -0.38632074 -1.5640066 1.2353815 0.9694767
000080 d5 82 c2 3f 65 29 e0 3f c1 c6 30 3e ff fe 64 3f
       1.5196177 1.7512633 0.17263319 0.89451593
000090 95 62 0d bd e6 de 5b 3f 73 b3 9d bf 73 f1 9f bf
       -0.034517843 0.8588699 -1.2320389 -1.249556
0000a0 51 54 28 3f 2c 86 73 bd de 34 e8 3f 21 d3 ed bd
       0.65753657 -0.05945413 1.8141134 -0.11612535
0000b0 22 b1 21 40 c6 b0 ad bf 28 2a 46 3f 2f 5c 64 3f
       2.5264363 -1.3569572 0.77408075 0.8920316
0000c0 88 91 a3 3f e2 f8 f2 3e 81 61 cd bf 11 a4 c1 bf
       1.2778788 0.47455508 -1.6045381 -1.5128194
0000d0 4e 9b 68 3f 1e 6c 2c 40 85 05 57 3f d9 68 d5 3f
       0.90861976 2.694099 0.839928 1.6672622
0000e0 56 5a 12 c0 82 75 02 3f d8 7f 7d 3f 0a 3f 29 3f
       -2.2867637 0.5096055 0.990232 0.66111815
0000f0 3f 23 9c 3f ca 5f a9 3f 30 b8 13 40 cc f9 33 be
       1.2198256 1.3232358 2.308117 -0.17575759

l2.bias f4 [8]
000000 20 df 27 3f 45 81 de 3e 17 32 67 3e 2f ab 27 3f
       0.65574837 0.43458 0.22577702 0.6549558
000010 52 8f e8 3e ed d8 ba bd 96 93 2f 3f d2 b4 fa 3e
       0.45421845 -0.091234066 0.68584573 0.4896608

l3.weight f4 [40, 8]
000000 64 04 18 bf e7 85 41 3f 71 f8 10 3f 42 d4 1e 3e
       -0.593817 0.75594944 0.5662909 0.15510657
000010 50 69 6c 3f 33 c5 36 c0 d7 c4 2d c0 f6 99 8c c0
       0.92348194 -2.855786 -2.7151392 -4.393794
000020 4e c4 e2 bf fb d0 fe 3e 65 37 58 c0 4e d2 df 3e
       -1.7716157 0.49768814 -3.378381 0.43715137
000030 ef 61 6c c0 70 02 5c 3f d6 e7 0f c0 8a 74 8f 3f
       -3.6934774 0.8594122 -2.2485251 1.120744
000040 7b 56 a7 3f c7 78 1d c0 8d 78 a7 c0 71 ed 9c bf
       1.3073267 -2.4604967 -5.2334657 -1.2259961
000050 a4 c0 84 bf a3 06 16 3f b0 fd 66 3f 87 d5 a1 c0
       -1.0371289 0.58603877 0.90230846 -5.0573153
000060 02 9e e8 bc f8 bb e4 3e f5 9f 74 bf 3e 81 e5 3e
       -0.028395656 0.4467466 -0.95556575 0.44825166
000070 3c a2 0b 3e 08 cc 43 3c 8d b2 8f bf 55 3d 6d bf
       0.13636106 0.0119505 -1.1226364 -0.9267171
000080 cf c4 31 c0 2e 88 9f be 86 cc 6e bf 0d c2 8a 3e
       -2.7776372 -0.31158584 -0.9328083 0.27101174
000090 d8 a2 1a c0 6b e6 24 3e 73 cc 36 bf bd 03 ec 3e
       -2.4161892 0.16103522 -0.71405715 0.46096602
0000a0 90 f0 e0 bf 9e 61 bd 3e 99 6e 84 c0 a4 c3 5a c0
       -1.7573414 0.36988539 -4.1385007 -3.418191
0000b0 b9 8e 86 bf 30 6e 07 c0 63 8c 4e 3f 0b 75 99 3f
       -1.0512305 -2.1161003 0.80682963 1.1988844
0000c0 54 bc 07 3e 99 0e 67 bf e9 df 97 be 2d f1 e1 bf
       0.13255435 -0.9025665 -0.29663017 -1.7651726
0000d0 87 bd ce c0 74 cd cd 3e 8a 7f c5 be 06 17 53 3f
       -6.4606357 0.4019581 -0.38573867 0.82457006
0000e0 05 96 83 3f ff 17 64 3f 62 49 fa bf 20 f3 6c c0
       1.0280157 0.89099115 -1.9553645 -3.7023392
0000f0 ef db 17 3f db de 96 3e 66 4b 83 bf 10 90 10 c0
       0.5931997 0.294669 -1.0257385 -2.2587929
000100 13 ce 8f 3e 93 e2 fa 3e 7c ad df be 7d 1e 04 c0
       0.2808691 0.49000987 -0.43687046 -2.0643609
000110 c9 25 46 3f b8 05 50 c0 bf 81 de be 5f 75 56 c0
       0.77401406 -3.250349 -0.43458363 -3.3509138
000120 ad 5c 1f 3f ce 56 0b 3d 80 c8 98 c0 51 d6 7d c0
       0.62250787 0.03401833 -4.774475 -3.9662058
000130 d7 20 5d 3f 74 32 30 c0 14 82 83 3f 11 4d 85 c0
       0.86378235 -2.7530794 1.0274072 -4.1656575
000140 b2 fd 20 3f dd 25 2a bd ee 27 3d bf e1 6a a3 3e
       0.6288711 -0.041540015 -0.7388905 0.3191748
000150 b8 11 07 bf 1f 15 22 3f 11 9b 85 bf 30 7b 51 bf
       -0.5276141 0.6331348 -1.0437948 -0.81828594
000160 93 29 71 3e 51 2f dd be f6 b3 a8 3f 13 b4 82 bd
       0.23551016 -0.43200162 1.317992 -0.06382003
000170 d7 5c cb bf 51 25 43 bf 4c b8 33 c0 70 a3 18 be
       -1.5887707 -0.76228815 -2.8081236 -0.14906096
000180 32 d0 5f c0 6a 03 01 3f 18 2f 14 bf af 47 d8 3e
       -3.4970822 0.50395834 -0.5788436 0.4224219
000190 53 c1 be 3e 75 09 32 c0 e8 2b a0 bf d4 82 d6 bd
       0.3725687 -2.7818272 -1.2513399 -0.10474172
0001a0 0a 4e 8f 3f 7d 3b a7 bf 33 02 e1 bf 09 0a 9d c0
       1.1195691 -1.3065029 -1.7578796 -4.907475
0001b0 b9 c7 8e bf 79 3a e6 3e 96 41 8c 3e b2 13 2a bf
       -1.11547 0.44966486 0.27393788 -0.664363
0001c0 54 6e 8d bd 86 1d 09 c0 12 40 bc c0 46 6b c7 3e
       -0.06905809 -2.142427 -5.882821 0.3894903
0001d0 4c a8 64 c0 4b 84 12 3f 21 ba 02 3f 42 d3 2a bf
       -3.572772 0.57233113 0.5106526 -0.66728604
0001e0 10 65 2f c0 60 c1 59 c0 c4 bc 29 3e 9e c5 d1 3e
       -2.7405434 -3.4024277 0.16575915 0.40971082
0001f0 f9 79 44 c0 65 66 5c 3f e1 dc 13 c0 ff 01 4e 3f
       -3.0699446 0.8609374 -2.3103564 0.80471796
000200 c6 58 09 3f 60 a2 a8 3c 48 7a c1 3f 0e c9 4b be
       0.5365108 0.020585239 1.5115442 -0.19900915
000210 5b f6 09 bf ce 83 e1 bf 48 b7 c1 bf c8 9a a3 c0
       -0.53891534 -1.7618349 -1.5134058 -5.112644
000220 e4 f5 f9 bf b2 ee 8d 3c 8a 21 94 bf 42 b8 1b 3e
       -1.9528165 0.017325733 -1.1572735 0.15207008
000230 3a 0c f3 3e f7 ef 19 c0 ca 40 22 3e 79 3d 82 c0
       0.47470266 -2.4052713 0.15845028 -4.070004
000240 48 e5 b6 bf e5 78 dc 3d 5f 50 cb 3f c6 d2 99 bf
       -1.4288721 0.10765246 1.5883902 -1.2017448
000250 74 b7 22 c0 9d b2 67 c0 ce c3 a8 bf 53 81 dc 3e
       -2.542447 -3.6202767 -1.3184755 0.43067417
000260 cd 58 87 3e b9 22 01 c0 1c 09 84 c0 ef 02 5b c0
       0.26434937 -2.0177443 -4.126112 -3.422054
000270 15 6c b9 c0 3d 97 42 3f 6a 55 fc 3e 3c dd 8b 3f
       -5.7944436 0.7601202 0.49283916 1.092689
000280 d5 bc 9c bf d0 ca 77 c0 3a 04 a9 3f b8 20 ce bd
       -1.2245127 -3.8717537 1.3204415 -0.10064834
000290 6a 20 c9 c0 02 08 c5 bf 9b d0 54 bf 93 fe 38 3f
       -6.285207 -1.5393069 -0.83130807 0.7226345
0002a0 17 20 6f 3e 67 47 94 bf 0a 7e 1a be e2 ae 60 3e
       0.23352085 -1.158429 -0.15087143 0.21941712
0002b0 9b fe 83 bf 7e 6d 17 be a4 bc 63 3d 8c 5d 89 bf
       -1.0312074 -0.14787862 0.055599824 -1.0731673
0002c0 1c fb ce bd b7 a7 6d c0 b5 fe 7e bf dd 99 5b c0
       -0.10106489 -3.7133615 -0.996074 -3.431266
0002d0 5d 8a 56 c0 70 a4 65 c0 20 d8 8d 3f d3 5b db bc
       -3.352195 -3.5881615 1.1081581 -0.026777184
0002e0 cd 76 82 3e ae 6c 29 3e 37 71 be bf 6d d2 3e bf
       0.25481263 0.16545364 -1.48783 -0.74539834
0002f0 ba cf 60 bf 2d 78 0f 3e a9 5a ee be 36 bd 05 3f
       -0.87816966 0.14010687 -0.46553543 0.5224184
000300 c9 3f 76 3f 7b 50 bc be 46 51 74 3f 8e 39 92 c0
       0.9619108 -0.36780152 0.95436513 -4.5695257
000310 62 4e 31 bf 5a 31 60 c0 84 fd f4 be df 7e 7d bf
       -0.6926023 -3.5030122 -0.47849667 -0.99021715
000320 1d 8c 4f 3d b0 87 b5 be 30 a7 32 3f c0 78 58 3f
       0.05067073 -0.35455084 0.6978636 0.8455925
000330 3d 2a dc c0 1e 59 ab 3e 85 af f0 bf 1d f3 38 bf
       -6.880156 0.3346643 -1.8803564 -0.7224596
000340 6a a5 79 be c5 33 1a 3f e5 5a a6 3f 42 ed ce bf
       -0.24379507 0.60235244 1.2996489 -1.6166155
000350 bd 1d 29 3e b5 48 68 c0 89 da 14 c0 f8 55 80 bf
       0.1651525 -3.6294377 -2.3258383 -1.0026236
000360 14 4d 8a c0 46 f2 b1 bd 72 7d 20 3f 52 89 09 3f
       -4.321909 -0.08688788 0.62691414 0.5372516
000370 20 d9 19 c0 65 7b c6 bf a5 75 ec bf 4f 6d 31 3f
       -2.4038773 -1.5506407 -1.8473402 0.69307417
000380 67 b7 00 3d 01 e6 51 c0 78 6d e7 bf 45 b5 22 3f
       0.031424906 -3.2796633 -1.8080282 0.63557845
000390 e0 9a a6 c0 75 7e 1c 3f 45 6f 49 bf 67 5c 3e 3e
       -5.2064056 0.6113046 -0.7868541 0.18589936
0003a0 85 5e 72 c0 c7 c4 3a 3f cc 8c 07 c0 8d 35 36 bf
       -3.787019 0.7295651 -2.1179686 -0.7117546
0003b0 41 9c 38 3e 83 cf 15 3d bd 61 b3 bf 10 f8 73 3f
       0.18028356 0.03657485 -1.4014202 0.9530039
0003c0 88 13 8d bf 7b 0c 3c 3f da 09 c5 bf 01 0c 11 c0
       -1.1021585 0.73456544 -1.5393631 -2.2663577
0003d0 8c d9 11 3f 1f dd 9d c0 80 1f 41 bf f9 f6 01 3f
       0.56972575 -4.9332423 -0.7543869 0.50767475
0003e0 0b c8 a8 3e c5 2c 7a 3e 23 9a d3 bf a2 36 93 c0
       0.3296512 0.2443114 -1.6531414 -4.600419
0003f0 cf fc 9f 3d ad cb 0d c0 22 df ee bd e6 e3 ac 3d
       0.07811891 -2.2155564 -0.11663653 0.08441906

l3.bias f4 [40]
000000 27 d4 b7 be 28 da 67 bd 05 96 8c 3e 92 73 0b 3e
       -0.35904047 -0.056604534 0.27458206 0.13618305
000010 96 1d 42 bf 35 47 4d 3f 0f 52 89 bf 46 0f 93 bf
       -0.75826395 0.8018678 -1.0728167 -1.1489036
000020 c4 e6 00 bf 8d 79 cf 3e 06 f7 0c 3e de 39 cf be
       -0.5035212 0.40522423 0.13766107 -0.40473837
000030 a4 f4 ac be c0 46 cb be 3a 51 36 bf c4 50 92 be
       -0.33780396 -0.39702415 -0.7121769 -0.28577244
000040 a8 ba 5e bf f7 e9 4c bf 0e 96 b6 bf 28 ad 18 3d
       -0.87003565 -0.800445 -1.4264543 0.03727451
000050 1e 49 1c be c7 25 1a 3e 3c 36 03 bd 53 3c 14 be
       -0.15262267 0.15053473 -0.032034144 -0.14476137
000060 ab da 51 bf 96 7c 73 3d 00 36 b6 3e 33 17 af 3e
       -0.81974286 0.059444986 0.35588074 0.34197387
000070 0e d2 1f be 83 ec ce bd d2 04 09 be 93 d1 49 bf
       -0.15607473 -0.10103705 -0.13380745 -0.7883541
000080 17 e5 06 bf 7a 73 f6 3e 69 99 50 bf ab 51 b0 be
       -0.52693313 0.48134977 -0.81484085 -0.34437308
000090 51 ca 5e 3d f2 62 01 bf e8 21 35 3e 67 e5 9e be
       0.054392163 -0.50541604 0.17688715 -0.31034395
