data.pth (torch, 17855 bytes, 6 tensors)

l1.weight f4 [8, 282]
00000000: 125d 96bc 1917 84bf de43 80bf 489f 94bf
00000010: 3c32 3840 1bb3 4940 aa14 8d3f 8566 86be
00000020: f6f5 223f 5f42 513e dba3 ed3e 4796 88be
00000030: 8e3b 603e cc5e a03e 42a7 66be d56a 50bf
00000040: 1a66 073e bdda 2b3f 4c98 92bc 85d6 a9bd
00000050: dd9f 0cba 0ff6 f9bd 7528 36bf ad6e 2fbf
00000060: 33cd ec3e 3fae 4a3f c066 a43e 1c42 303f
00000070: b4cf 62be 0ba6 85be a6a9 8bbe 2446 dcbf
00000080: 7c04 92bf 389f d2bf 3e1b 3bbf 36ba 133f
00000090: 4009 263f 401a 803f 7bb6 e2bd 9c31 73be
000000a0: 8ced 8cbe 132c 9c3e 299d 0c40 807e cc3f
000000b0: 1acc 37bf 14dc d83f 2fe0 1bbf 25e1 bdbf
000000c0: 3d5e 34bf 1dbd b5bf d5a6 a23e 96b7 b1be
000000d0: 3257 403d ec7b 25bf 2876 8e3e c790 a8bd
000000e0: 9ec2 4abd 6826 2dbf d47e c4bc fe6c 533e
000000f0: da61 543e 1ac2 e13e df79 913e 581d 193f
00000100: 2fad 62be c70c bcbe ed97 50be dcff a83e
00000110: a97e 543e a389 0f3e 5dd9 2cbe 4b31 f8bf
00000120: 8957 85bf 4fba b03e cf5d 883e 8d64 14bd
00000130: f438 52be c370 3bbf 89ce 88be 4a95 4fbf
00000140: 72a1 89be d1af b6be 2650 b5be f791 d23f
00000150: de42 be3f 370c d33f 169a b93f 795c c0be
00000160: 5232 36bf 4092 95be 1669 d63f b1aa 5ebe
00000170: 7c47 ddbc 1a3c 80be 73da ca3f f36e 953f
00000180: 51cb e13f 4317 90be 9010 8abe c452 4bbf
00000190: 2a04 523f fb8f 9e3e d867 e03e a0b7 88be
000001a0: 4b15 bb3b e113 883f 37aa 24bf 0495 35bf
000001b0: d176 2f3f 73db a33e f207 413f 9424 3e3f
000001c0: 7bd3 35bf aafd 1b3f 4df4 823f 306b 5e3e
000001d0: d750 e6be f32f 5cbe cc59 c1bd a738 98bf
000001e0: 46eb 97bf 2809 dfbc a66b 433f 0845 21bf
000001f0: 95a8 89be 4219 08bd eb43 37bd b589 a6bf
00000200: a261 99bf 46a5 8fbe 6e0b f1be fe51 9bbf
00000210: 8a01 5bbe dce1 50bf 711e 54bf 07e3 b83f
00000220: 56a9 dfbd 3c07 44be fe60 b73f f6f2 a63f
00000230: fb91 f23e ddb4 9e3f c030 3dbf c99c b8be
00000240: 5772 8abe b9cc 94be d6ff 54bf d204 edbe
00000250: 0de5 95be 3e74 f8be 4d80 a6bf 358e 4ebf
00000260: 696e f8be 1732 ffbe 67e5 8dbf 5022 55bf
00000270: 2b6e aabf c045 b0be ba67 4b3e 6296 2d40
00000280: 91b3 2f40 c6fa d73f 685f 0ebd 4e29 b63c
00000290: 57cd 4f3f 2c4a a13f 41cf 693f ab71 d7be
000002a0: a551 923e 10eb 293e 7c35 a8be 90e9 253f
000002b0: d8b5 0440 5899 303e 8595 0b3f 3cb3 abbe
000002c0: 4d62 f23f 777d 6b3f d5ae fb3e 8195 99bd
000002d0: 5528 593f fb7c 803f 441c 873f 0f93 bd3f
000002e0: bea0 3dbf 2645 9ebd 9c0c 753d 77ba f0be
000002f0: dc0e d7be a06c e63e c93d 16bf 3499 003f
00000300: 08bc b2be a74d 46be 2920 f93e 29b9 babe
00000310: 47e3 1640 6692 273f addf 19bf c429 293d
00000320: d428 07bf 1301 363e fa84 b73e 7858 d5be
00000330: 0646 fcbe ecd6 36bc 9b5c 74be 3cc2 76be
00000340: 36c3 1140 f3e6 f03c a243 d53d 4d94 bf3f
00000350: d2d7 703d 69bb 3ebf d172 85be 4562 3ebe
00000360: 7bb9 36be 200b e13f 8c9c d43f 16d4 4fbf
00000370: 4490 98bf f9c3 b4be 9812 47be 9d20 34bf
00000380: 0031 0c3f 12d8 f9be b73b 7fbf ebc9 293e
00000390: 7511 96bf b6c1 673f 2221 9a3f 5078 c2bd
000003a0: 25b4 253f 0ebe 0a3f ddea 103f eb25 b43e
000003b0: ea1c 5cbf f30f 023f 83cf 993e f6b6 81be
000003c0: 7be6 53be 9dad afbe 0b72 84be 3455 82be
000003d0: 7d04 b1be 582c a6bf ff57 38bf 6039 4ebf
000003e0: 4770 94be 9bb6 fa3e 2de2 90be 1f19 73bd
000003f0: 5200 df3d a2bc a93e 8808 9b3e 0f33 4d3f
-0.018354926 -1.0319549 -1.0020711 -1.1611109 2.878066 3.1515567 1.1021931 -0.2625009
0.63656557 0.20435475 0.46414074 -0.26677153 0.21897718 0.31322324 -0.22524741 -0.8141301
0.13222542 0.67130643 -0.017894886 -0.082928695 -0.00053643977 -0.12205135 -0.7115548 -0.6852825
0.46250305 0.7917213 0.32109642 0.68850875 -0.22149545 -0.26103243 -0.2727787 -1.7208905
-1.1407619 -1.645484 -0.73088443 0.5770601 0.64857864 1.0008011 -0.11069962 -0.23749393
-0.27524984 0.30502376 2.1970923 1.5976105 -0.7179581 1.6942163 -0.6088895 -1.4834334
-0.70456296 -1.4198338 0.31767908 -0.34710377 0.046958156 -0.64642215 0.2782452 -0.08230739
-0.049502008 -0.6763673 -0.023986258 0.20647046 0.20740452 0.440934 0.28413293 0.598104
-0.22136377 -0.36728498 -0.20370455 0.33007705 0.20751442 0.14017348 -0.16879793 -1.9390043
-1.0417339 0.34517142 0.2663407 -0.036228705 -0.20529538 -0.73218936 -0.26720074 -0.8108717
-0.26880985 -0.35681012 -0.3541271 1.6450795 1.4864156 1.6488103 1.4500148 -0.3757055
-0.7117053 -0.29213142 1.675082 -0.21744801 -0.027011625 -0.25045854 1.5847915 1.1674484
1.7640172 -0.28142747 -0.2696576 -0.79423165 0.82037604 0.30969223 0.43829226 -0.26702595
0.0057093254 1.0631067 -0.6432223 -0.70930505 0.68540674 0.32003364 0.7540275 0.74274564
-0.7102582 0.60933936 1.0230805 0.21720576 -0.4498355 -0.21502666 -0.094409555 -1.1892289
-1.1868675 -0.027226046 0.76336133 -0.6299596 -0.2688643 -0.033227213 -0.044742506 -1.3010775
-1.198292 -0.2805578 -0.47079033 -1.2134397 -0.21387306 -0.81594634 -0.8285895 1.4444283
-0.1092097 -0.19143385 1.4326475 1.3042896 0.47377 1.2398945 -0.7390251 -0.36057118
-0.2704036 -0.2906244 -0.83202875 -0.4629274 -0.29276314 -0.48526186 -1.3007904 -0.8068574
-0.48521736 -0.49842903 -1.1085633 -0.8325548 -1.331487 -0.34428215 0.19863787 2.7123036
2.7453349 1.6873405 -0.034758955 0.022236492 0.811727 1.260076 0.9133187 -0.4207891
0.28577915 0.16593575 -0.32853305 0.64809513 2.0735989 0.17245996 0.54525024 -0.33535182
1.8936249 0.9198832 0.49156824 -0.07499219 0.84827167 1.0038141 1.0555501 1.4810504
-0.740734 -0.07728033 0.05982648 -0.4701726 -0.42003524 0.4500475 -0.58688027 0.5023377
-0.3490908 -0.1936556 0.4865735 -0.3646939 2.357622 0.6545776 -0.6010693 0.041299596
-0.52796674 0.17773847 0.3584364 -0.4166906 -0.49272174 -0.01115964 -0.23863451 -0.24097532
2.2775397 0.029407 0.104132906 1.4967133 0.058799572 -0.74504715 -0.2606416 -0.18592174
-0.17844193 1.758152 1.6610274 -0.8118299 -1.1919026 -0.35305765 -0.19440687 -0.70362264
0.5476227 -0.4879766 -0.9970049 0.16580932 -1.1724077 0.90529954 1.2041361 -0.09495604
0.64728004 0.5419625 0.5660837 0.3518518 -0.8598162 0.50805587 0.3004113 -0.253349
-0.2069339 -0.34312144 -0.25868258 -0.2545563 -0.34573737 -1.2982283 -0.7200927 -0.805563
-0.2899191 0.48967442 -0.28297558 -0.05935013 0.10888733 0.33151728 0.30279946 0.80156034

l1.bias f4 [8]
00000000: 6d30 2a3f b978 833f 5a16 b03f d71a 243f
00000010: 8890 373f ff54 403f 2aeb 343f 921f 733f
0.6648014 1.0271217 1.3756821 0.64103454 0.7170491 0.75129694 0.7067133 0.9497005

l2.weight f4 [8, 8]
00000000: ebe8 b9bd 1220 c4bf 9bbd c53f cac7 2440
00000010: ce67 da3f 389a 3dbf 845f 373f 1259 1040
00000020: 6a29 a93f 540a 4e3f 11cc 6c3f 271f fdbe
00000030: 426c edbf e7d4 af3f f8ce fb3e 5ba3 5bbf
00000040: 39b6 8cbf 9be8 1940 5f3b 0a40 6565 d8bf
00000050: 2c50 18bf 4c48 b83e 8d6e 6fbf 76af ca3f
00000060: 71c4 8bbe 6851 c03f 33f9 2c3f 430d 1ebe
00000070: 2fe0 e83e 10ad e0bf 9c7c b33e 3abd 0540
00000080: 830a d63f 0ad4 d73e 3886 583f 3cb7 3b3f
00000090: 2b10 1740 958f 0b40 2eb8 a33e b613 dfbf
000000a0: 2550 0e40 745e c33f d1be 73bf 7c65 6e3f
000000b0: 1916 88bf 0ceb da3e 0857 d63f b1cd 253f
000000c0: 091e dcbe 3047 3cbd f887 15bf ecc1 5bbe
000000d0: 0982 693f f25a 443f 1306 1240 4d3b 843f
000000e0: 8e86 09c0 261f 053f 180f d43f eef9 1d3e
000000f0: 5128 7cbf 3133 c63f 0382 ba3f d1ca 20bd
-0.09077629 -1.5322287 1.5448488 2.5746942 1.7062929 -0.74063444 0.7163012 2.2554364
1.3215764 0.8048451 0.9249888 -0.4943783 -1.8548663 1.3736848 0.49181342 -0.85796136
-1.099311 2.404822 2.1598737 -1.6905943 -0.5949733 0.35992658 -0.9352806 1.5834796
-0.2729831 1.5024843 0.6756775 -0.15434746 0.45483539 -1.7552814 0.35056007 2.0896745
1.6721958 0.4215396 0.845798 0.7332647 2.3603618 2.1806386 0.31976455 -1.742789
2.2236416 1.52632 -0.9521304 0.931236 -1.0631744 0.42757452 1.674531 0.64766985
-0.42991665 -0.045966327 -0.58410597 -0.21460694 0.9121404 0.7670127 2.2816207 1.0330597
-2.1488376 0.52000654 1.6567106 0.15427372 -0.9849902 1.5484372 1.4570926 -0.03925592

l2.bias f4 [8]
00000000: 3f2c 333f 0604 393e 74f9 b23f 9b98 143f
00000010: ed64 293d d7ed 393e 3f7a 84bd 3d39 afbd
0.6998939 0.18067941 1.3982377 0.5804536 0.041356016 0.18157135 -0.06468629 -0.08555839

l3.weight f4 [38, 8]
00000000: acbc 8a3f 0735 84c0 91e0 a8bf b3bb da3e
00000010: 16d5 c1bc 7525 8fc0 0211 46bf 4c8b 02c0
00000020: 58ac 88c0 2888 8f3d 8a85 973f b2a0 db3e
00000030: b5b5 a3bd 3889 f2bf 487a 08c0 f013 593f
00000040: e505 68bf 3a62 883e 2d59 fdbc 0352 5bbe
00000050: deac 2bbe 552e ac3d 518e 9ebe 4c79 cfbd
00000060: e6f3 e03e 7a28 d5c0 a171 8b3e 692a 173e
00000070: 93c0 8ebf 1899 ee3e 84e6 58c0 7de5 b8be
00000080: d3ca b1bf 1e91 9f3f 6c00 833e 5ae6 65c0
00000090: a3e2 c4bd 7b77 0fc0 0312 e2bf 8ae9 233f
000000a0: 7581 36bf 2fda 623f a739 2f3f 73f2 9cbf
000000b0: a3dd d6bf 4947 a5c0 8c7e b7bf 0e06 953f
000000c0: 3b62 9bc0 c50a ed3e e5e2 14c0 6fed 2fc0
000000d0: c90f fcbe 3c37 a93e bc61 533f 2cba 533f
000000e0: 48a8 17c0 a3ae 68bf d687 65c0 5729 fabf
000000f0: 796c 553f 4dfc 543e 9086 d93e 77b8 d4bf
00000100: 3866 94be a4ea 57bf 52f3 2bc0 b5be 053f
00000110: 38e4 13c0 09d3 1f3f e6f9 5c3f e941 6ec0
00000120: 79f6 4bbf 449e 9dbe bae3 c33e 1963 eabb
00000130: a7b1 67bf 4684 ed3d 3397 dc3e 2844 c43e
00000140: 83b0 4cbf 19df 95c0 2d45 033f 4009 173e
00000150: 60d3 4bbf 04a2 d9bf 4faf 0f40 fc80 8bbd
00000160: 95cf ad3e b9f1 d2c0 6dde afc0 6545 35bd
00000170: 0b74 2a3f e1cd c8bf eca0 ff3e a501 85c0
00000180: 4af4 24be b1ac a7bf e920 923e 5a6e 14c0
00000190: 9d7b 803f 598d c3c0 68b9 61bf b3fd 293d
000001a0: e7ed d9bf a8bc f9be d461 8ac0 be80 80c0
000001b0: bfa5 c63e 6c70 b8bf 8e1c 9b3f 2d27 9e3c
000001c0: e05d 03bf 65da 91c0 c9fe 16c0 e66d a1bf
000001d0: 9126 2c3e 298d 56c0 ca0f b63f 74ef 5d3f
000001e0: 7746 b4c0 8ce4 063f 6ea6 fd3e 403d 49c0
000001f0: 9425 4c3f f38b 10bf 6c7b 0ac0 6214 033e
00000200: 641e 47bf 3572 c23e bf7a 80c0 80ae 03c0
00000210: 888c 6bbf 33e4 273f dfd6 a93e 7d2f 13c0
00000220: 8730 9d3f 2338 d4bf ff19 d93d e562 6b3f
00000230: b690 2cc0 b750 26c0 945d 773f 88d1 66c0
00000240: cb85 8dbf 5049 5d3f 41f1 1dc0 4d62 a3c0
00000250: 588f 863f 9778 26bf 9fa7 62c0 eebe a1bf
00000260: ee91 633f 5ef9 c4c0 a1d0 e13c 7cfb 2abd
00000270: f3c3 c3bf b842 bcc0 568e 82bd fff3 5b3f
00000280: 108a 7d3e 3155 59bf 6aef 65bf 3772 1dbf
00000290: 103d e4be 0a75 1fbe 0436 dfbd 7df5 913e
000002a0: 0040 313e 7971 e2bf b4f4 883f 6a25 583f
000002b0: 8972 8ec0 643b 5ec0 ee9d adbf 8948 793e
000002c0: c7e1 793d 0d9a 96bf 57cb ba3e e803 563e
000002d0: 3d4e 73be b39b 81bf a158 43bf 4d94 bebd
000002e0: bf53 a6bf 1506 5abf 581d 883f ae3c e53e
000002f0: c99d 373f be81 c7bf 866a debf 313a b1c0
00000300: 8a61 0fbe 68db bac0 2e44 893e 505b e83e
00000310: 1dba 16bf 07f9 0c3f d6c5 853e 3c15 6cc0
00000320: e2c0 04bc 99c4 4dbf 47fb 11c0 f7dd d43e
00000330: c3f0 13bf 5658 433f ba14 70c0 2020 5fc0
00000340: 115d dabf 1cc0 27bf 4c0b 203f 88db 1cc0
00000350: c66d b13d a401 fcbf 6814 413f 3693 093f
00000360: e211 4dc0 8869 94bf 7440 a13f c6b6 bc3f
00000370: 22c4 a0c0 da1e e13e 1e1c e3be 9e82 52bf
00000380: 0680 be3e d226 d2c0 2fcf 1d3f 815f 163f
00000390: 86be f73d 22da 8fbf 26ed 8fc0 b722 83c0
000003a0: fb01 dcbe 9f9c 6ac0 a168 34c0 e89f 26c0
000003b0: 8027 dc3e 85a8 5c3e be62 863f c1e1 86c0
000003c0: 2a3e 99c0 b0b1 293f a358 4e3f 1025 083f
000003d0: 9e18 36bf c162 5a3e d806 8fc0 5d3d 7fc0
000003e0: 4a50 ef3d 915d ffbe 0159 333f 0d48 7e3f
000003f0: 770b efbf 4a60 68be 9d95 8cc0 906e 44c0
1.0838828 -4.131473 -1.3193532 0.42721328 -0.023661178 -4.4733224 -0.773697 -2.039752
-4.271038 0.070083916 1.1837628 0.42896038 -0.07993642 -1.8948126 -2.1324635 0.8479605
-0.90633994 0.2663744 -0.030926311 -0.21418004 -0.16765162 0.08407275 -0.30967954 -0.101305574
0.4393608 -6.661191 0.2723513 0.14762272 -1.1152519 0.46601176 -3.3890696 -0.36112586
-1.3890022 1.2466161 0.2558626 -3.5921845 -0.0961354 -2.2416675 -1.7661747 0.6402823
-0.71291286 0.8861417 0.68447345 -1.226149 -1.6786388 -5.164952 -1.4335494 1.1642473
-4.855741 0.4629728 -2.3263485 -2.7488668 -0.49230793 0.33049953 0.82571006 0.8270595
-2.369646 -0.90891474 -3.5864158 -1.9543866 0.8336864 0.2079937 0.42485476 -1.6618794
-0.28984237 -0.8434241 -2.686726 0.5224412 -2.3108044 0.6243139 0.86318815 -3.7227728
-0.7967296 -0.3078481 0.3825968 -0.0071529266 -0.9050545 0.11597495 0.43084106 0.3833325
-0.79956836 -4.6834836 0.5127743 0.14749622 -0.7961941 -1.7002568 2.245075 -0.06811711
0.33947435 -6.592007 -5.4959016 -0.044255633 0.6658332 -1.5687829 0.4992746 -4.1564507
-0.16108814 -1.3099576 0.28540733 -2.3192353 1.0037724 -6.1110044 -0.8817353 0.041501712
-1.7025727 -0.48776746 -4.324442 -4.0157156 0.3879833 -1.4409308 1.2118089 0.01930579
-0.51315117 -4.5579095 -2.3593009 -1.2611663 0.16811587 -3.3523657 1.4223568 0.866935
-5.6336017 0.52692485 0.49541038 -3.1443634 0.7974484 -0.56463546 -2.163783 0.12800744
-0.7778075 0.37977758 -4.0149837 -2.0575256 -0.9201131 0.6558258 0.33171746 -2.2997735
1.2280434 -1.6579632 0.106006615 0.91947776 -2.6963325 -2.5986764 0.96627164 -3.6065388
-1.1056455 0.8643999 -2.46785 -5.1057496 1.0512495 -0.65027755 -3.5414808 -1.2636392
0.88894546 -6.1554403 0.027565302 -0.04174374 -1.5294174 -5.8831444 -0.06374805 0.85919183
0.24759698 -0.84895617 -0.8981844 -0.61502403 -0.44577837 -0.1557199 -0.108989745 0.28507605
0.1730957 -1.7690879 1.0699677 0.8443209 -4.4514813 -3.472375 -1.3563821 0.24344076
0.061006334 -1.1765763 0.3648326 0.20899928 -0.23760314 -1.0125641 -0.7630711 -0.0930563
-1.2994307 -0.8516553 1.0633955 0.44772857 0.71725136 -1.5586469 -1.7376258 -5.5383534
-0.14002052 -5.839283 0.2680983 0.45382166 -0.58877736 0.55067486 0.261275 -3.688796
-0.0081026275 -0.8037811 -2.2809618 0.41575596 -0.5778925 0.76306665 -3.751265 -3.4863358
-1.7059652 -0.6552751 0.6251724 -2.4508991 0.08663516 -1.9688001 0.7542176 0.5374025
-3.2042165 -1.1594706 1.2597795 1.4743278 -5.023942 0.4396885 -0.4435739 -0.82230556
0.3720705 -6.567239 0.6164426 0.5873948 0.12096886 -1.1238444 -4.497699 -4.0979877
-0.4297026 -3.6658094 -2.818886 -2.60351 0.42998886 0.2154866 1.0498884 -4.215058
-4.7888384 0.66286755 0.80604 0.5318155 -0.7113131 0.21326734 -4.4695854 -3.9881203
0.11685236 -0.49876073 0.70057684 0.9932869 -1.8675374 -0.22692981 -4.3932633 -3.0692482

l3.bias f4 [38]
00000000: 866d b73e b4c0 8cbe e6fc 80be 6497 e13e
00000010: 017f 62be c6ed 56bf 2429 9cbf a5ba 66be
00000020: bb83 abbf d692 d3bd 8f81 133e c5a7 3e3c
00000030: d2ff 4f3e 6a46 eabf 499b 88bf df89 aebe
00000040: 6bec cfbf 7f5c 803e 4cdc 9fbf 913b 9dbe
00000050: 40f4 acbc 7b37 a83e dc4c 40bf db58 ac3d
00000060: 3e10 96bc adc2 be3d d0ad 63bf f14b 423e
00000070: 38b9 103f f291 bf3c 44bb 93be 573d e63e
00000080: 9d85 76bf f1d1 813c b29d 1f3e 0bef a4bf
00000090: 1c73 18be 9ced b9be
0.35825747 -0.2749077 -0.25192946 0.44060814 -0.2211876 -0.83956563 -1.2200055 -0.22532137
-1.3399576 -0.10330741 0.14404891 0.011636679 0.20312431 -1.8302739 -1.0672389 -0.34089562
-1.6244024 0.2507057 -1.2489104 -0.30709508 -0.021112561 0.32854828 -0.7511728 0.08415385
-0.018318292 0.09314475 -0.8893709 0.18974282 0.5653262 0.023385022 -0.2885381 0.44968674
-0.9629763 0.015847178 0.155875 -1.288545 -0.1488766 -0.36314094
